…
s=4, sv_uselinv=True, sv_tailact=True, sv_res=True, sv_numlayer=1, sv_norm='none', el_uselinv=True, el_uselins=False, el_tailact=True, el_numlayer=2, el_norm='none', el_uses=False, conv_uselinv=True, conv_tailact=True, conv_numlayer=1, conv_norm='none', predlin_numlayer=1, predlin_norm='none', lexp='mlp', lexp_layer=2, lexp_norm='ln', outln=False, pool='max', Tm=1, save=None, load=None, use_pos=False, align_size=32)
fixed bincls
10873 2331 2331
split 10873 2331 2331
num_task 10
PiOModel(
  (inputencoder): QInputEncoder(
    (xemb): MultiEmbedding(
      (embedding_list): ModuleList(
        (0): Embedding(18, 96, padding_idx=0)
        (1): Embedding(4, 96, padding_idx=0)
        (2-3): 2 x Embedding(8, 96, padding_idx=0)
        (4): Embedding(6, 96, padding_idx=0)
        (5): Embedding(2, 96, padding_idx=0)
        (6): Embedding(7, 96, padding_idx=0)
        (7-8): 2 x Embedding(3, 96, padding_idx=0)
      )
      (postemb): Sequential(
        (0): LayerNorm((96,), eps=1e-05, elementwise_affine=False)
      )
    )
    (edgeEmb): MultiEmbedding(
      (embedding_list): ModuleList(
        (0-2): 3 x Embedding(5, 96, padding_idx=0)
      )
      (postemb): Sequential(
        (0): LayerNorm((96,), eps=1e-05, elementwise_affine=False)
      )
    )
    (LambdaEmb): MLPEncoding(
      (lin): MLP(
        (lin): Sequential(
          (0): Linear(in_features=1, out_features=192, bias=True)
          (1): LayerNorm(
            (norm): LayerNorm((192,), eps=1e-05, elementwise_affine=True)
          )
          (2): SiLU(inplace=True)
          (3): Linear(in_features=192, out_features=96, bias=True)
          (4): LayerNorm(
            (norm): LayerNorm((96,), eps=1e-05, elementwise_affine=True)
          )
          (5): SiLU(inplace=True)
        )
      )
    )
    (distEmb): MLPEncoding(
      (lin): MLP(
        (lin): Sequential(
          (0): Linear(in_features=1, out_features=192, bias=True)
          (1): LayerNorm(
            (norm): LayerNorm((192,), eps=1e-05, elementwise_affine=True)
          )
          (2): SiLU(inplace=True)
          (3): Linear(in_features=192, out_features=96, bias=True)
          (4): LayerNorm(
            (norm): LayerNorm((96,), eps=1e-05, elementwise_affine=True)
          )
          (5): SiLU(inplace=True)
        )
      )
    )
  )
  (LambdaEncoder): PermEquiLayer(
    (set2set): Sequential(
      (0): Set2Set(
      (mlp1): MLP(
        (lin): Sequential(
          (0): Linear(in_features=96, out_features=96, bias=True)
          (1): LayerNorm(
            (norm): LayerNorm((96,), eps=1e-05, elementwise_affine=True)
          )
          (2): SiLU(inplace=True)
          (3): Linear(in_features=96, out_features=96, bias=True)
          (4): LayerNorm(
            (norm): LayerNorm((96,), eps=1e-05, elementwise_affine=True)
          )
          (5): SiLU(inplace=True)
        )
      )
      (mlp2): MLP(
        (lin): Sequential(
          (0): Linear(in_features=96, out_features=96, bias=True)
          (1): LayerNorm(
            (norm): LayerNorm((96,), eps=1e-05, elementwise_affine=True)
          )
          (2): SiLU(inplace=True)
          (3): Linear(in_features=96, out_features=96, bias=True)
          (4): LayerNorm(
            (norm): LayerNorm((96,), eps=1e-05, elementwise_affine=True)
          )
          (5): SiLU(inplace=True)
        )
      )
    )
      (1): Set2Set(
      (mlp1): MLP(
        (lin): Sequential(
          (0): Linear(in_features=96, out_features=96, bias=True)
          (1): LayerNorm(
            (norm): LayerNorm((96,), eps=1e-05, elementwise_affine=True)
          )
          (2): SiLU(inplace=True)
          (3): Linear(in_features=96, out_features=96, bias=True)
          (4): LayerNorm(
            (norm): LayerNorm((96,), eps=1e-05, elementwise_affine=True)
          )
          (5): SiLU(inplace=True)
        )
      )
      (mlp2): MLP(
        (lin): Sequential(
          (0): Linear(in_features=96, out_features=96, bias=True)
          (1): LayerNorm(
            (norm): LayerNorm((96,), eps=1e-05, elementwise_affine=True)
          )
          (2): SiLU(inplace=True)
          (3): Linear(in_features=96, out_features=96, bias=True)
          (4): LayerNorm(
            (norm): LayerNorm((96,), eps=1e-05, elementwise_affine=True)
          )
          (5): SiLU(inplace=True)
        )
      )
    )
      (2): Set2Set(
      (mlp1): MLP(
        (lin): Sequential(
          (0): Linear(in_features=96, out_features=96, bias=True)
          (1): LayerNorm(
            (norm): LayerNorm((96,), eps=1e-05, elementwise_affine=True)
          )
          (2): SiLU(inplace=True)
          (3): Linear(in_features=96, out_features=96, bias=True)
          (4): LayerNorm(
            (norm): LayerNorm((96,), eps=1e-05, elementwise_affine=True)
          )
          (5): SiLU(inplace=True)
        )
      )
      (mlp2): MLP(
        (lin): Sequential(
          (0): Linear(in_features=96, out_features=96, bias=True)
          (1): LayerNorm(
            (norm): LayerNorm((96,), eps=1e-05, elementwise_affine=True)
          )
          (2): SiLU(inplace=True)
          (3): Linear(in_features=96, out_features=96, bias=True)
          (4): LayerNorm(
            (norm): LayerNorm((96,), eps=1e-05, elementwise_affine=True)
          )
          (5): SiLU(inplace=True)
        )
      )
    )
      (3): Identity()
    )
    (set2vec): Sequential(
      (0): MLP(
      (lin): Sequential(
        (0): NoneNorm()
      )
    )
    )
  )
  (elprojs): ModuleList(
    (0-3): 4 x sv2el(
      (linv1): Linear(in_features=96, out_features=96, bias=False)
      (linv2): Linear(in_features=96, out_features=96, bias=False)
      (lins1): Identity()
      (lins2): Identity()
      (lin): MLP(
        (lin): Sequential(
          (0): Linear(in_features=96, out_features=96, bias=True)
          (1): NoneNorm()
          (2): SiLU(inplace=True)
          (3): Linear(in_features=96, out_features=96, bias=True)
          (4): NoneNorm()
          (5): SiLU(inplace=True)
        )
      )
    )
  )
  (svmixs): ModuleList(
    (0-3): 4 x svMix(
      (linv1): Linear(in_features=96, out_features=96, bias=False)
      (linv2): Linear(in_features=96, out_features=96, bias=False)
      (linv3): Identity()
      (lins1): MLP(
        (lin): Sequential(
          (0): Linear(in_features=96, out_features=96, bias=True)
          (1): NoneNorm()
          (2): SiLU(inplace=True)
        )
      )
      (lins2): MLP(
        (lin): Sequential(
          (0): Linear(in_features=96, out_features=96, bias=True)
          (1): NoneNorm()
          (2): SiLU(inplace=True)
        )
      )
      (lins3): Identity()
    )
  )
  (convs): ModuleList(
    (0-3): 4 x DirCFConv(
      (lins): MLP(
        (lin): Sequential(
          (0): Linear(in_features=96, out_features=96, bias=True)
          (1): NoneNorm()
          (2): SiLU(inplace=True)
        )
      )
      (linv): Linear(in_features=96, out_features=96, bias=False)
    )
  )
  (predlin): MLP(
    (lin): Sequential(
      (0): Linear(in_features=96, out_features=10, bias=True)
    )
  )
  (predln): Identity()
  (vln): Sequential(
    (0): VMean()
    (1): VNorm()
  )
  (elvln): Sequential(
    (0): VMean()
    (1): VNorm()
  )
  (sln): LayerNorm((96,), eps=1e-05, elementwise_affine=False)
)
numel 531658
Epoch 1 train time : 887.1 loss: 3.83e-01
 test time : 291.2 Train 0.0 Validation 0.29759156703948975 Test 0.29251763224601746
GPU memory 10.02
Epoch 2 train time : 262.9 loss: 3.20e-01
 test time : 45.6 Train 0.0 Validation 0.3529662787914276 Test 0.3471781611442566
Epoch 3 train time : 262.8 loss: 3.04e-01
 test time : 45.6 Train 0.0 Validation 0.393923282623291 Test 0.3940207362174988
…
