…
e, sv_tailact=True, sv_res=True, sv_numlayer=1, sv_norm='none', el_uselinv=True, el_uselins=False, el_tailact=True, el_numlayer=2, el_norm='none', el_uses=False, conv_uselinv=True, conv_tailact=True, conv_numlayer=1, conv_norm='none', predlin_numlayer=1, predlin_norm='none', lexp='mlp', lexp_layer=2, lexp_norm='ln', outln=False, pool='mean', Tm=1, save='pepstruct.8.72.wd1e-1', load=None, use_pos=False, align_size=32)
fixed l1reg
10873 2331 2331
split 10873 2331 2331
num_task 11
PiOModel(
  (inputencoder): QInputEncoder(
    (xemb): MultiEmbedding(
      (embedding_list): ModuleList(
        (0): Embedding(18, 72, padding_idx=0)
        (1): Embedding(4, 72, padding_idx=0)
        (2-3): 2 x Embedding(8, 72, padding_idx=0)
        (4): Embedding(6, 72, padding_idx=0)
        (5): Embedding(2, 72, padding_idx=0)
        (6): Embedding(7, 72, padding_idx=0)
        (7-8): 2 x Embedding(3, 72, padding_idx=0)
      )
      (postemb): Sequential(
        (0): LayerNorm((72,), eps=1e-05, elementwise_affine=False)
      )
    )
    (edgeEmb): MultiEmbedding(
      (embedding_list): ModuleList(
        (0-2): 3 x Embedding(5, 72, padding_idx=0)
      )
      (postemb): Sequential(
        (0): LayerNorm((72,), eps=1e-05, elementwise_affine=False)
      )
    )
    (LambdaEmb): MLPEncoding(
      (lin): MLP(
        (lin): Sequential(
          (0): Linear(in_features=1, out_features=144, bias=True)
          (1): LayerNorm(
            (norm): LayerNorm((144,), eps=1e-05, elementwise_affine=True)
          )
          (2): SiLU(inplace=True)
          (3): Linear(in_features=144, out_features=72, bias=True)
          (4): LayerNorm(
            (norm): LayerNorm((72,), eps=1e-05, elementwise_affine=True)
          )
          (5): SiLU(inplace=True)
        )
      )
    )
  )
  (LambdaEncoder): PermEquiLayer(
    (set2set): Sequential(
      (0): Set2Set(
      (mlp1): MLP(
        (lin): Sequential(
          (0): Linear(in_features=72, out_features=72, bias=True)
          (1): LayerNorm(
            (norm): LayerNorm((72,), eps=1e-05, elementwise_affine=True)
          )
          (2): SiLU(inplace=True)
          (3): Linear(in_features=72, out_features=72, bias=True)
          (4): LayerNorm(
            (norm): LayerNorm((72,), eps=1e-05, elementwise_affine=True)
          )
          (5): SiLU(inplace=True)
        )
      )
      (mlp2): MLP(
        (lin): Sequential(
          (0): Linear(in_features=72, out_features=72, bias=True)
          (1): LayerNorm(
            (norm): LayerNorm((72,), eps=1e-05, elementwise_affine=True)
          )
          (2): SiLU(inplace=True)
          (3): Linear(in_features=72, out_features=72, bias=True)
          (4): LayerNorm(
            (norm): LayerNorm((72,), eps=1e-05, elementwise_affine=True)
          )
          (5): SiLU(inplace=True)
        )
      )
    )
      (1): Set2Set(
      (mlp1): MLP(
        (lin): Sequential(
          (0): Linear(in_features=72, out_features=72, bias=True)
          (1): LayerNorm(
            (norm): LayerNorm((72,), eps=1e-05, elementwise_affine=True)
          )
          (2): SiLU(inplace=True)
          (3): Linear(in_features=72, out_features=72, bias=True)
          (4): LayerNorm(
            (norm): LayerNorm((72,), eps=1e-05, elementwise_affine=True)
          )
          (5): SiLU(inplace=True)
        )
      )
      (mlp2): MLP(
        (lin): Sequential(
          (0): Linear(in_features=72, out_features=72, bias=True)
          (1): LayerNorm(
            (norm): LayerNorm((72,), eps=1e-05, elementwise_affine=True)
          )
          (2): SiLU(inplace=True)
          (3): Linear(in_features=72, out_features=72, bias=True)
          (4): LayerNorm(
            (norm): LayerNorm((72,), eps=1e-05, elementwise_affine=True)
          )
          (5): SiLU(inplace=True)
        )
      )
    )
      (2): Set2Set(
      (mlp1): MLP(
        (lin): Sequential(
          (0): Linear(in_features=72, out_features=72, bias=True)
          (1): LayerNorm(
            (norm): LayerNorm((72,), eps=1e-05, elementwise_affine=True)
          )
          (2): SiLU(inplace=True)
          (3): Linear(in_features=72, out_features=72, bias=True)
          (4): LayerNorm(
            (norm): LayerNorm((72,), eps=1e-05, elementwise_affine=True)
          )
          (5): SiLU(inplace=True)
        )
      )
      (mlp2): MLP(
        (lin): Sequential(
          (0): Linear(in_features=72, out_features=72, bias=True)
          (1): LayerNorm(
            (norm): LayerNorm((72,), eps=1e-05, elementwise_affine=True)
          )
          (2): SiLU(inplace=True)
          (3): Linear(in_features=72, out_features=72, bias=True)
          (4): LayerNorm(
            (norm): LayerNorm((72,), eps=1e-05, elementwise_affine=True)
          )
          (5): SiLU(inplace=True)
        )
      )
    )
      (3): Identity()
    )
    (set2vec): Sequential(
      (0): MLP(
      (lin): Sequential(
        (0): NoneNorm()
      )
    )
    )
  )
  (elprojs): ModuleList(
    (0-7): 8 x sv2el(
      (linv1): Linear(in_features=72, out_features=72, bias=False)
      (linv2): Linear(in_features=72, out_features=72, bias=False)
      (lins1): Identity()
      (lins2): Identity()
      (lin): MLP(
        (lin): Sequential(
          (0): Linear(in_features=72, out_features=72, bias=True)
          (1): NoneNorm()
          (2): SiLU(inplace=True)
          (3): Linear(in_features=72, out_features=72, bias=True)
          (4): NoneNorm()
          (5): SiLU(inplace=True)
        )
      )
    )
  )
  (svmixs): ModuleList(
    (0-7): 8 x svMix(
      (linv1): Linear(in_features=72, out_features=72, bias=False)
      (linv2): Linear(in_features=72, out_features=72, bias=False)
      (linv3): Identity()
      (lins1): MLP(
        (lin): Sequential(
          (0): Linear(in_features=72, out_features=72, bias=True)
          (1): NoneNorm()
          (2): SiLU(inplace=True)
        )
      )
      (lins2): MLP(
        (lin): Sequential(
          (0): Linear(in_features=72, out_features=72, bias=True)
          (1): NoneNorm()
          (2): SiLU(inplace=True)
        )
      )
      (lins3): Identity()
    )
  )
  (convs): ModuleList(
    (0-7): 8 x DirCFConv(
      (lins): MLP(
        (lin): Sequential(
          (0): Linear(in_features=72, out_features=72, bias=True)
          (1): NoneNorm()
          (2): SiLU(inplace=True)
        )
      )
      (linv): Linear(in_features=72, out_features=72, bias=False)
    )
  )
  (predlin): MLP(
    (lin): Sequential(
      (0): Linear(in_features=72, out_features=11, bias=True)
    )
  )
  (predln): Identity()
  (vln): Sequential(
    (0): VMean()
    (1): VNorm()
  )
  (elvln): Sequential(
    (0): VMean()
    (1): VNorm()
  )
  (sln): LayerNorm((72,), eps=1e-05, elementwise_affine=False)
)
numel 499691
Epoch 1 train time : 863.5 loss: 5.50e-01
 test time : 305.4 Train 0.0 Validation 0.40114647150039673 Test 0.40676480531692505
GPU memory 40.28
Epoch 2 train time : 418.8 loss: 3.64e-01
 test time : 74.7 Train 0.0 Validation 0.370330274105072 Test 0.37672048807144165
Epoch 3 train time : 417.4 loss: 3.35e-01
 test time : 75.1 Train 0.0 Validation 0.31942856311798096 Test 0.32686999440193176
…
