…
s=8, sv_uselinv=True, sv_tailact=False, sv_res=True, sv_numlayer=1, sv_norm='none', el_uselinv=True, el_uselins=False, el_tailact=True, el_numlayer=2, el_norm='ln', el_uses=False, conv_uselinv=True, conv_tailact=False, conv_numlayer=1, conv_norm='none', predlin_numlayer=1, predlin_norm='none', lexp='mlp', lexp_layer=2, lexp_norm='ln', outln=False, pool='mean', Tm=1, save=None, load=None, use_pos=False, align_size=32)
fixed l1reg
10873 2331 2331
split 10873 2331 2331
num_task 11
PiOModel(
  (inputencoder): QInputEncoder(
    (xemb): MultiEmbedding(
      (embedding_list): ModuleList(
        (0): Embedding(18, 72, padding_idx=0)
        (1): Embedding(4, 72, padding_idx=0)
        (2-3): 2 x Embedding(8, 72, padding_idx=0)
        (4): Embedding(6, 72, padding_idx=0)
        (5): Embedding(2, 72, padding_idx=0)
        (6): Embedding(7, 72, padding_idx=0)
        (7-8): 2 x Embedding(3, 72, padding_idx=0)
      )
      (postemb): Sequential(
        (0): LayerNorm((72,), eps=1e-05, elementwise_affine=False)
      )
    )
    (edgeEmb): MultiEmbedding(
      (embedding_list): ModuleList(
        (0-2): 3 x Embedding(5, 72, padding_idx=0)
      )
      (postemb): Sequential(
        (0): LayerNorm((72,), eps=1e-05, elementwise_affine=False)
      )
    )
    (LambdaEmb): MLPEncoding(
      (lin): MLP(
        (lin): Sequential(
          (0): Linear(in_features=1, out_features=144, bias=True)
          (1): LayerNorm(
            (norm): LayerNorm((144,), eps=1e-05, elementwise_affine=True)
          )
          (2): SiLU(inplace=True)
          (3): Linear(in_features=144, out_features=72, bias=True)
          (4): LayerNorm(
            (norm): LayerNorm((72,), eps=1e-05, elementwise_affine=True)
          )
          (5): SiLU(inplace=True)
        )
      )
    )
    (distEmb): MLPEncoding(
      (lin): MLP(
        (lin): Sequential(
          (0): Linear(in_features=1, out_features=144, bias=True)
          (1): LayerNorm(
            (norm): LayerNorm((144,), eps=1e-05, elementwise_affine=True)
          )
          (2): SiLU(inplace=True)
          (3): Linear(in_features=144, out_features=72, bias=True)
          (4): LayerNorm(
            (norm): LayerNorm((72,), eps=1e-05, elementwise_affine=True)
          )
          (5): SiLU(inplace=True)
        )
      )
    )
  )
  (LambdaEncoder): PermEquiLayer(
    (set2set): Sequential(
      (0): Set2Set(
      (mlp1): MLP(
        (lin): Sequential(
          (0): Linear(in_features=72, out_features=72, bias=True)
          (1): LayerNorm(
            (norm): LayerNorm((72,), eps=1e-05, elementwise_affine=True)
          )
          (2): SiLU(inplace=True)
          (3): Linear(in_features=72, out_features=72, bias=True)
          (4): LayerNorm(
            (norm): LayerNorm((72,), eps=1e-05, elementwise_affine=True)
          )
          (5): SiLU(inplace=True)
        )
      )
      (mlp2): MLP(
        (lin): Sequential(
          (0): Linear(in_features=72, out_features=72, bias=True)
          (1): LayerNorm(
            (norm): LayerNorm((72,), eps=1e-05, elementwise_affine=True)
          )
          (2): SiLU(inplace=True)
          (3): Linear(in_features=72, out_features=72, bias=True)
          (4): LayerNorm(
            (norm): LayerNorm((72,), eps=1e-05, elementwise_affine=True)
          )
          (5): SiLU(inplace=True)
        )
      )
    )
      (1): Set2Set(
      (mlp1): MLP(
        (lin): Sequential(
          (0): Linear(in_features=72, out_features=72, bias=True)
          (1): LayerNorm(
            (norm): LayerNorm((72,), eps=1e-05, elementwise_affine=True)
          )
          (2): SiLU(inplace=True)
          (3): Linear(in_features=72, out_features=72, bias=True)
          (4): LayerNorm(
            (norm): LayerNorm((72,), eps=1e-05, elementwise_affine=True)
          )
          (5): SiLU(inplace=True)
        )
      )
      (mlp2): MLP(
        (lin): Sequential(
          (0): Linear(in_features=72, out_features=72, bias=True)
          (1): LayerNorm(
            (norm): LayerNorm((72,), eps=1e-05, elementwise_affine=True)
          )
          (2): SiLU(inplace=True)
          (3): Linear(in_features=72, out_features=72, bias=True)
          (4): LayerNorm(
            (norm): LayerNorm((72,), eps=1e-05, elementwise_affine=True)
          )
          (5): SiLU(inplace=True)
        )
      )
    )
      (2): Set2Set(
      (mlp1): MLP(
        (lin): Sequential(
          (0): Linear(in_features=72, out_features=72, bias=True)
          (1): LayerNorm(
            (norm): LayerNorm((72,), eps=1e-05, elementwise_affine=True)
          )
          (2): SiLU(inplace=True)
          (3): Linear(in_features=72, out_features=72, bias=True)
          (4): LayerNorm(
            (norm): LayerNorm((72,), eps=1e-05, elementwise_affine=True)
          )
          (5): SiLU(inplace=True)
        )
      )
      (mlp2): MLP(
        (lin): Sequential(
          (0): Linear(in_features=72, out_features=72, bias=True)
          (1): LayerNorm(
            (norm): LayerNorm((72,), eps=1e-05, elementwise_affine=True)
          )
          (2): SiLU(inplace=True)
          (3): Linear(in_features=72, out_features=72, bias=True)
          (4): LayerNorm(
            (norm): LayerNorm((72,), eps=1e-05, elementwise_affine=True)
          )
          (5): SiLU(inplace=True)
        )
      )
    )
      (3): Set2Set(
      (mlp1): MLP(
        (lin): Sequential(
          (0): Linear(in_features=72, out_features=72, bias=True)
          (1): LayerNorm(
            (norm): LayerNorm((72,), eps=1e-05, elementwise_affine=True)
          )
          (2): SiLU(inplace=True)
          (3): Linear(in_features=72, out_features=72, bias=True)
          (4): LayerNorm(
            (norm): LayerNorm((72,), eps=1e-05, elementwise_affine=True)
          )
          (5): SiLU(inplace=True)
        )
      )
      (mlp2): MLP(
        (lin): Sequential(
          (0): Linear(in_features=72, out_features=72, bias=True)
          (1): LayerNorm(
            (norm): LayerNorm((72,), eps=1e-05, elementwise_affine=True)
          )
          (2): SiLU(inplace=True)
          (3): Linear(in_features=72, out_features=72, bias=True)
          (4): LayerNorm(
            (norm): LayerNorm((72,), eps=1e-05, elementwise_affine=True)
          )
          (5): SiLU(inplace=True)
        )
      )
    )
      (4): Identity()
    )
    (set2vec): Sequential(
      (0): MLP(
      (lin): Sequential(
        (0): NoneNorm()
      )
    )
    )
  )
  (elprojs): ModuleList(
    (0-7): 8 x sv2el(
      (linv1): Linear(in_features=72, out_features=72, bias=False)
      (linv2): Linear(in_features=72, out_features=72, bias=False)
      (lins1): Identity()
      (lins2): Identity()
      (lin): MLP(
        (lin): Sequential(
          (0): Linear(in_features=72, out_features=72, bias=True)
          (1): LayerNorm(
            (norm): LayerNorm((72,), eps=1e-05, elementwise_affine=True)
          )
          (2): SiLU(inplace=True)
          (3): Linear(in_features=72, out_features=72, bias=True)
          (4): LayerNorm(
            (norm): LayerNorm((72,), eps=1e-05, elementwise_affine=True)
          )
          (5): SiLU(inplace=True)
        )
      )
    )
  )
  (svmixs): ModuleList(
    (0-7): 8 x svMix(
      (linv1): Linear(in_features=72, out_features=72, bias=False)
      (linv2): Linear(in_features=72, out_features=72, bias=False)
      (linv3): Identity()
      (lins1): MLP(
        (lin): Sequential(
          (0): Linear(in_features=72, out_features=72, bias=True)
        )
      )
      (lins2): MLP(
        (lin): Sequential(
          (0): Linear(in_features=72, out_features=72, bias=True)
        )
      )
      (lins3): Identity()
    )
  )
  (convs): ModuleList(
    (0-7): 8 x DirCFConv(
      (lins): MLP(
        (lin): Sequential(
          (0): Linear(in_features=72, out_features=72, bias=True)
        )
      )
      (linv): Linear(in_features=72, out_features=72, bias=False)
    )
  )
  (predlin): MLP(
    (lin): Sequential(
      (0): Linear(in_features=72, out_features=11, bias=True)
    )
  )
  (predln): Identity()
  (vln): Sequential(
    (0): Identity()
    (1): Identity()
  )
  (elvln): Sequential(
    (0): Identity()
    (1): Identity()
  )
  (sln): LayerNorm((72,), eps=1e-05, elementwise_affine=False)
)
numel 534755
Epoch 1 train time : 1379.8 loss: 5.86e-01
 test time : 558.5 Train 0.0 Validation 0.4858013689517975 Test 0.49916648864746094
GPU memory 17.43
Epoch 2 train time : 438.8 loss: 4.66e-01
 test time : 56.2 Train 0.0 Validation 0.38932138681411743 Test 0.4010375142097473
Epoch 3 train time : 443.2 loss: 4.62e-01
 test time : 56.1 Train 0.0 Validation 0.44522902369499207 Test 0.45803341269493103
…
