…
ailact=True, sv_res=True, sv_numlayer=1, sv_norm='none', el_uselinv=True, el_uselins=False, el_tailact=True, el_numlayer=2, el_norm='none', el_uses=False, conv_uselinv=True, conv_tailact=True, conv_numlayer=1, conv_norm='none', predlin_numlayer=1, predlin_norm='none', lexp='mlp', lexp_layer=2, lexp_norm='ln', outln=False, pool='mean', Tm=1, save='zinc.lr1.5e-3.wd1e-2', load=None, use_pos=False, align_size=4)
fixed smoothl1reg
220011 24445 5000
split 220011 24445 5000
num_task 1
PiOModel(
  (inputencoder): QInputEncoder(
    (xemb): MultiEmbedding(
      (embedding_list): ModuleList(
        (0): Embedding(40, 80, padding_idx=0)
      )
      (postemb): Sequential(
        (0): LayerNorm((80,), eps=1e-05, elementwise_affine=False)
      )
    )
    (edgeEmb): MultiEmbedding(
      (embedding_list): ModuleList(
        (0): Embedding(20, 80, padding_idx=0)
      )
      (postemb): Sequential(
        (0): LayerNorm((80,), eps=1e-05, elementwise_affine=False)
      )
    )
    (LambdaEmb): MLPEncoding(
      (lin): MLP(
        (lin): Sequential(
          (0): Linear(in_features=1, out_features=160, bias=True)
          (1): LayerNorm(
            (norm): LayerNorm((160,), eps=1e-05, elementwise_affine=True)
          )
          (2): SiLU(inplace=True)
          (3): Linear(in_features=160, out_features=80, bias=True)
          (4): LayerNorm(
            (norm): LayerNorm((80,), eps=1e-05, elementwise_affine=True)
          )
          (5): SiLU(inplace=True)
        )
      )
    )
  )
  (LambdaEncoder): PermEquiLayer(
    (set2set): Sequential(
      (0): Set2Set(
      (mlp1): MLP(
        (lin): Sequential(
          (0): Linear(in_features=80, out_features=80, bias=True)
          (1): LayerNorm(
            (norm): LayerNorm((80,), eps=1e-05, elementwise_affine=True)
          )
          (2): SiLU(inplace=True)
          (3): Linear(in_features=80, out_features=80, bias=True)
          (4): LayerNorm(
            (norm): LayerNorm((80,), eps=1e-05, elementwise_affine=True)
          )
          (5): SiLU(inplace=True)
        )
      )
      (mlp2): MLP(
        (lin): Sequential(
          (0): Linear(in_features=80, out_features=80, bias=True)
          (1): LayerNorm(
            (norm): LayerNorm((80,), eps=1e-05, elementwise_affine=True)
          )
          (2): SiLU(inplace=True)
          (3): Linear(in_features=80, out_features=80, bias=True)
          (4): LayerNorm(
            (norm): LayerNorm((80,), eps=1e-05, elementwise_affine=True)
          )
          (5): SiLU(inplace=True)
        )
      )
    )
      (1): Set2Set(
      (mlp1): MLP(
        (lin): Sequential(
          (0): Linear(in_features=80, out_features=80, bias=True)
          (1): LayerNorm(
            (norm): LayerNorm((80,), eps=1e-05, elementwise_affine=True)
          )
          (2): SiLU(inplace=True)
          (3): Linear(in_features=80, out_features=80, bias=True)
          (4): LayerNorm(
            (norm): LayerNorm((80,), eps=1e-05, elementwise_affine=True)
          )
          (5): SiLU(inplace=True)
        )
      )
      (mlp2): MLP(
        (lin): Sequential(
          (0): Linear(in_features=80, out_features=80, bias=True)
          (1): LayerNorm(
            (norm): LayerNorm((80,), eps=1e-05, elementwise_affine=True)
          )
          (2): SiLU(inplace=True)
          (3): Linear(in_features=80, out_features=80, bias=True)
          (4): LayerNorm(
            (norm): LayerNorm((80,), eps=1e-05, elementwise_affine=True)
          )
          (5): SiLU(inplace=True)
        )
      )
    )
      (2): Set2Set(
      (mlp1): MLP(
        (lin): Sequential(
          (0): Linear(in_features=80, out_features=80, bias=True)
          (1): LayerNorm(
            (norm): LayerNorm((80,), eps=1e-05, elementwise_affine=True)
          )
          (2): SiLU(inplace=True)
          (3): Linear(in_features=80, out_features=80, bias=True)
          (4): LayerNorm(
            (norm): LayerNorm((80,), eps=1e-05, elementwise_affine=True)
          )
          (5): SiLU(inplace=True)
        )
      )
      (mlp2): MLP(
        (lin): Sequential(
          (0): Linear(in_features=80, out_features=80, bias=True)
          (1): LayerNorm(
            (norm): LayerNorm((80,), eps=1e-05, elementwise_affine=True)
          )
          (2): SiLU(inplace=True)
          (3): Linear(in_features=80, out_features=80, bias=True)
          (4): LayerNorm(
            (norm): LayerNorm((80,), eps=1e-05, elementwise_affine=True)
          )
          (5): SiLU(inplace=True)
        )
      )
    )
      (3): Identity()
    )
    (set2vec): Sequential(
      (0): MLP(
      (lin): Sequential(
        (0): NoneNorm()
      )
    )
    )
  )
  (elprojs): ModuleList(
    (0-7): 8 x sv2el(
      (linv1): Linear(in_features=80, out_features=80, bias=False)
      (linv2): Linear(in_features=80, out_features=80, bias=False)
      (lins1): Identity()
      (lins2): Identity()
      (lin): MLP(
        (lin): Sequential(
          (0): Linear(in_features=80, out_features=80, bias=True)
          (1): NoneNorm()
          (2): SiLU(inplace=True)
          (3): Linear(in_features=80, out_features=80, bias=True)
          (4): NoneNorm()
          (5): SiLU(inplace=True)
        )
      )
    )
  )
  (svmixs): ModuleList(
    (0-7): 8 x svMix(
      (linv1): Linear(in_features=80, out_features=80, bias=False)
      (linv2): Linear(in_features=80, out_features=80, bias=False)
      (linv3): Identity()
      (lins1): MLP(
        (lin): Sequential(
          (0): Linear(in_features=80, out_features=80, bias=True)
          (1): NoneNorm()
          (2): SiLU(inplace=True)
        )
      )
      (lins2): MLP(
        (lin): Sequential(
          (0): Linear(in_features=80, out_features=80, bias=True)
          (1): NoneNorm()
          (2): SiLU(inplace=True)
        )
      )
      (lins3): Identity()
    )
  )
  (convs): ModuleList(
    (0-7): 8 x DirCFConv(
      (lins): MLP(
        (lin): Sequential(
          (0): Linear(in_features=80, out_features=80, bias=True)
          (1): NoneNorm()
          (2): SiLU(inplace=True)
        )
      )
      (linv): Linear(in_features=80, out_features=80, bias=False)
    )
  )
  (predlin): MLP(
    (lin): Sequential(
      (0): Linear(in_features=80, out_features=1, bias=True)
    )
  )
  (predln): Identity()
  (vln): Sequential(
    (0): VMean()
    (1): VNorm()
  )
  (elvln): Sequential(
    (0): VMean()
    (1): VNorm()
  )
  (sln): LayerNorm((80,), eps=1e-05, elementwise_affine=False)
)
numel 613441
Epoch 1 train time : 420.1 loss: 1.39e+00
 test time : 163.9 Train 0.0 Validation 0.8722705245018005 Test 0.8703441619873047
GPU memory 15.41
Epoch 2 train time : 263.1 loss: 6.75e-01
 test time : 20.0 Train 0.0 Validation 0.5484234094619751 Test 0.5421751737594604
Epoch 3 train time : 261.6 loss: 5.50e-01
 test time : 19.9 Train 0.0 Validation 0.4847237467765808 Test 0.47725170850753784
…
